…
kpoint = \"distilbert-base-uncased-finetuned-sst-2-english\"\n","pretrained_model = AutoModel.from_pretrained(checkpoint)\n","\n","pretrained_model"],"metadata":{"colab":{"base_uri":"https://localhost:8080/"},"id":"Y3ZZEEpFuYGu","executionInfo":{"status":"ok","timestamp":1703688164898,"user_tz":-60,"elapsed":2377,"user":{"displayName":"Bhavana Malla","userId":"13569433150164017713"}},"outputId":"98114e6a-5668-4bd0-cf21-e810d479530b"},"execution_count":null,"outputs":[{"output_type":"execute_result","data":{"text/plain":["DistilBertModel(\n","  (embeddings): Embeddings(\n","    (word_embeddings): Embedding(30522, 768, padding_idx=0)\n","    (position_embeddings): Embedding(512, 768)\n","    (LayerNorm): LayerNorm((768,), eps=1e-12, elementwise_affine=True)\n","    (dropout): Dropout(p=0.1, inplace=False)\n","  )\n","  (transformer): Transformer(\n","    (layer): ModuleList(\n","      (0-5): 6 x TransformerBlock(\n","        (attention): MultiHeadSelfAttention(\n","          (dropout): Dropout(p=0.1, inplace=False)\n","          (q_lin): Linear(in_features=768, out_features=768, bias=True)\n","          (k_lin): Linear(in_features=768, out_features=768, bias=True)\n","          (v_lin): Linear(in_features=768, out_features=768, bias=True)\n","          (out_lin): Linear(in_features=768, out_features=768, bias=True)\n","        )\n","        (sa_layer_norm): LayerNorm((768,), eps=1e-12, elementwise_affine=True)\n","        (ffn): FFN(\n","          (dropout): Dropout(p=0.1, inplace=False)\n","          (lin1): Linear(in_features=768, out_features=3072, bias=True)\n","          (lin2): Linear(in_features=3072, out_features=768, bias=True)\n","          (activation): GELUActivation()\n","        )\n","        (output_layer_norm): LayerNorm((768,), eps=1e-12, elementwise_affine=True)\n","      )\n","    )\n","  )\n",")"]},"metadata":{},"execution_count":30}]},{"cell_type":"markdown","source":["This architecture contains only the base Transformer module: given some inputs, it outputs what we’ll call hidden states, also known as features. For each model input, we’ll retrieve a high-dimensional vector representing the contextual underst
…
fig)\n","\n","bert_model\n","\n","#Note as we didnt use BertModel.from_pretrained() and lodaded the config, the model will be randomly initialized"],"metadata":{"colab":{"base_uri":"https://localhost:8080/"},"id":"GYZemFMxEB6G","executionInfo":{"status":"ok","timestamp":1703693905801,"user_tz":-60,"elapsed":4537,"user":{"displayName":"Bhavana Malla","userId":"13569433150164017713"}},"outputId":"fd472e9e-e2b4-48b6-8d18-89e55dce7d06"},"execution_count":null,"outputs":[{"output_type":"execute_result","data":{"text/plain":["(BertModel(\n","   (embeddings): BertEmbeddings(\n","     (word_embeddings): Embedding(30522, 768, padding_idx=0)\n","     (position_embeddings): Embedding(512, 768)\n","     (token_type_embeddings): Embedding(2, 768)\n","     (LayerNorm): LayerNorm((768,), eps=1e-12, elementwise_affine=True)\n","     (dropout): Dropout(p=0.1, inplace=False)\n","   )\n","   (encoder): BertEncoder(\n","     (layer): ModuleList(\n","       (0-11): 12 x BertLayer(\n","         (attention): BertAttention(\n","           (self): BertSelfAttention(\n","             (query): Linear(in_features=768, out_features=768, bias=True)\n","             (key): Linear(in_features=768, out_features=768, bias=True)\n","             (value): Linear(in_features=768, out_features=768, bias=True)\n","             (dropout): Dropout(p=0.1, inplace=False)\n","           )\n","           (output): BertSelfOutput(\n","             (dense): Linear(in_features=768, out_features=768, bias=True)\n","             (LayerNorm): LayerNorm((768,), eps=1e-12, elementwise_affine=True)\n","             (dropout): Dropout(p=0.1, inplace=False)\n","           )\n","         )\n","         (intermediate): BertIntermediate(\n","           (dense): Linear(in_features=768, out_features=3072, bias=True)\n","           (intermediate_act_fn): GELUActivation()\n","         )\n","         (output): BertOutput(\n","           (dense): Linear(in_features=3072, out_features=768, bias=True)\n","           (LayerNorm): LayerNorm((768,), eps=1e-12, elementwise_affine=True)\n","           (dropout): Dropout(p=0.1, inplace=False)\n","         )\n","       )\n","     )\n","   )\n","   (pooler): BertPooler(\n","     (dense): Linear(in_features=768, out_features=768, bias=True)\n","     (activation): Tanh()\n","   )\n"," ),\n"," type)"]},"metadata":{},"execution_count":53}]},{"cell_type":"markdown","source":["######**Different loading methods**\n","\n","Creating a model from the default configuration initializes it with random values.\n","\n","Thats what happened in the earlier cell.\n","\n","```\n","from transformers import 
…
fetensors\n"]}]},{"cell_type":"code","source":["loaded_model = BertModel.from_pretrained(pretrained_model_name_or_path=\"./models\")\n","loaded_model"],"metadata":{"colab":{"base_uri":"https://localhost:8080/"},"id":"--1t11MGI6ZQ","executionInfo":{"status":"ok","timestamp":1703695277037,"user_tz":-60,"elapsed":4416,"user":{"displayName":"Bhavana Malla","userId":"13569433150164017713"}},"outputId":"41b1d02f-028a-4e4a-8264-f6545774793d"},"execution_count":null,"outputs":[{"output_type":"execute_result","data":{"text/plain":["BertModel(\n","  (embeddings): BertEmbeddings(\n","    (word_embeddings): Embedding(28996, 768, padding_idx=0)\n","    (position_embeddings): Embedding(512, 768)\n","    (token_type_embeddings): Embedding(2, 768)\n","    (LayerNorm): LayerNorm((768,), eps=1e-12, elementwise_affine=True)\n","    (dropout): Dropout(p=0.1, inplace=False)\n","  )\n","  (encoder): BertEncoder(\n","    (layer): ModuleList(\n","      (0-11): 12 x BertLayer(\n","        (attention): BertAttention(\n","          (self): BertSelfAttention(\n","            (query): Linear(in_features=768, out_features=768, bias=True)\n","            (key): Linear(in_features=768, out_features=768, bias=True)\n","            (value): Linear(in_features=768, out_features=768, bias=True)\n","            (dropout): Dropout(p=0.1, inplace=False)\n","          )\n","          (output): BertSelfOutput(\n","            (dense): Linear(in_features=768, out_features=768, bias=True)\n","            (LayerNorm): LayerNorm((768,), eps=1e-12, elementwise_affine=True)\n","            (dropout): Dropout(p=0.1, inplace=False)\n","          )\n","        )\n","        (intermediate): BertIntermediate(\n","          (dense): Linear(in_features=768, out_features=3072, bias=True)\n","          (intermediate_act_fn): GELUActivation()\n","        )\n","        (output): BertOutput(\n","          (dense): Linear(in_features=3072, out_features=768, bias=True)\n","          (LayerNorm): LayerNorm((768,), eps=1e-12, elementwise_affine=True)\n","          (dropout): Dropout(p=0.1, inplace=False)\n","        )\n","      )\n","    )\n","  )\n","  (pooler): BertPooler(\n","    (dense): Linear(in_features=768, out_features=768, bias=True)\n","    (activation): Tanh()\n","  )\n",")"]},"metadata":{},"execution_count":60}]},{"cell_type":"markdown","source":["######**Using a Transformer model for inference**\n","Now that you know how to load and save a model, let’s try using it to make some predictions. Transformer models can only process numbers — numbers that the tokenizer generates. But 
…
